hw1/weight_all_100000.npy (npy, 1432 bytes, 1 tensors)

array f8 [163, 1]
000000 22 e6 27 ec 4c d6 b6 3f 0b 84 7e ce 41 b3 60 3f
       0.08920746579669772 0.002038601425696123
000010 eb b4 eb 70 3e 4e aa bf 48 ab fd cc 2b 46 40 bf
       -0.051378203663128584 -0.0004966462965801744
000020 c5 54 67 c1 58 89 a8 bf 4c 08 d1 d2 60 f5 68 bf
       -0.04792287217029804 -0.003046692951586249
000030 53 8b 57 1f 2f c4 94 3f ec d2 9f c8 78 2f 7a 3f
       0.020279632842981354 0.0063929288971748925
000040 7b eb d1 ed 08 6a a2 bf 5e a7 40 19 b7 eb b6 3f
       -0.03596523192478337 0.08953422895924976
000050 27 f3 fb 0d 07 37 9c bf 5c b6 e0 05 04 7a 98 3f
       -0.02755366347172408 0.023902953013183
000060 21 2d c9 b1 1c 49 b1 3f 45 20 39 79 c8 5e 84 bf
       0.0675218519256089 -0.009946409415661725
000070 50 60 62 9f 6f 2e a3 3f da 47 2f a2 85 ab c2 3f
       0.03746365376099503 0.14585943621801684
000080 63 ff f1 6a cd c4 b8 3f 62 df 74 6d df 7d c3 3f
       0.09675296650857272 0.15227883190686514
000090 72 13 8c 13 58 52 d5 3f 69 66 7d d9 c1 14 bf 3f
       0.3331508818521832 0.121410480115992
0000a0 4b 20 0d d2 29 da 99 3f 60 82 ea 4d bf c4 b5 3f
       0.02524628967810853 0.0850333752846466
0000b0 f5 cd b0 7e a8 dc d8 bf 09 b0 91 20 fd 85 df 3f
       -0.38846790668614456 0.4925530260140936
0000c0 1c 33 e4 b3 b7 b8 c2 bf df ae 93 02 0d 41 dc bf
       -0.14626213344345096 -0.4414703869976914
0000d0 27 91 87 c2 eb 20 d2 3f a3 37 77 f5 58 f9 f1 3f
       0.2832593345358582 1.1233758533958074
0000e0 64 58 d6 46 ca 24 d4 bf 0c 10 80 eb 5d 5c c0 3f
       -0.3147454921503423 0.1278188133147754
0000f0 8b 29 a3 1f 69 68 d3 bf a2 41 d3 11 00 a1 70 bf
       -0.3032477196653864 -0.0040597918243325
000100 37 6e 26 a5 9b e5 e1 3f c1 90 9c b9 fa 56 da bf
       0.55927831893809 -0.41155880094653347
000110 b8 60 a4 4a 9d 9e b2 bf 11 28 a3 ea ca c9 c1 bf
       -0.07273276398007311 -0.13897072274113545
000120 2f f3 be c0 3b 89 d2 3f 2e 5e 31 88 83 28 9f 3f
       0.28962606261102314 0.030427985370208237
000130 ff 49 8e e6 a8 bd 98 3f 44 e9 3b d0 aa 6a ba 3f
       0.024160994598398485 0.10319011291349961
000140 89 c3 b2 b8 98 76 a9 bf 6e 41 05 36 ad c2 8d bf
       -0.049732945009402015 -0.014531472407413228
000150 af ba 90 ad 76 30 b7 bf da c9 69 05 57 ff a6 3f
       -0.09058324563441532 0.04491683903770012
000160 f0 0e d7 8b a8 b2 b4 3f 06 3a 61 d6 1b f8 c3 bf
       0.08085111059250116 -0.1560091778541876
000170 c5 e9 90 ad 9a 49 96 3f 65 92 cb 7c ab c7 a1 bf
       0.021765152782089254 -0.034726485236920714
000180 44 f8 45 02 8f 94 93 bf f0 19 f1 29 9c 10 b3 bf
       -0.01912139369368783 -0.07447219871492172
000190 55 8f bb 34 ed b9 93 bf 4a 29 3e f0 47 f1 7e bf
       -0.019263941138788116 -0.007554322251858212
0001a0 fb 36 84 31 6e ba a8 bf ec 83 52 3a a2 e0 b9 bf
       -0.04829735140275023 -0.10108388828167819
0001b0 ec 20 22 f5 08 a9 c3 3f 62 74 af 2a 19 92 77 3f
       0.15359603852653636 0.005754564578606654
0001c0 8f 2f e0 d6 cc df a0 bf c0 98 2d 08 6c 99 7b 3f
       -0.0329574596690626 0.006738111495769583
0001d0 a6 b7 87 c7 3d 61 a0 3f 44 be 90 66 65 af 9d 3f
       0.03199189243956306 0.028989395508857166
0001e0 6c f6 b8 c7 a4 cc 66 3f 40 e9 33 fe be c3 92 bf
       0.0027831285822504295 -0.018324836983972803
0001f0 85 63 e5 bf cc 16 94 3f 64 6a 36 b4 eb ca be 3f
       0.019618224346547492 0.12028382444115376
000200 00 8e 0f 6a 46 b3 6a 3f 95 1d 77 fc f1 56 87 3f
       0.0032593131331724035 0.01139630367005288
000210 c3 5e af 77 ee 3f 7c bf 2f 46 46 63 0b 4c 97 bf
       -0.0068969073426711795 -0.022751024183497556
000220 f5 4b 5c 29 27 9e 73 3f 25 c8 25 30 94 bf a1 bf
       0.004789498305188812 -0.03466475570429876
000230 fa b8 1a 08 52 35 96 bf 57 6a a8 c9 45 38 8c bf
       -0.021687776322033316 -0.013779206482515223
000240 09 1d cd 87 b9 cd b9 3f 55 e2 30 0c 95 a0 7b 3f
       0.10079536023578241 0.0067449400112811935
000250 b5 ae 21 72 29 9c 83 3f 21 79 65 dd 00 40 9e bf
       0.009575198932189147 -0.029541028511965387
000260 e8 4d d0 dc 9c 7f a4 3f 55 ad 00 38 a1 38 7b bf
       0.04003610797385787 -0.006645803223402543
000270 ea b2 6c 7b a9 e8 a3 bf 9f 96 76 a5 6c 3f a3 3f
       -0.038884445492248634 0.03759326476874247
000280 38 a8 18 3f 4a 93 60 bf 54 5b 7a 8a e9 3b a2 3f
       -0.0020233583570830292 0.0356133443394159
000290 5f 0b 89 97 b0 8a a2 bf ff e9 4f 92 dd 15 83 bf
       -0.036214369295086916 -0.009319048907845405
0002a0 c0 5e 5d 4e 35 41 cb 3f 11 bd 48 52 56 4e ce bf
       0.21292749716189086 -0.23676566140918756
0002b0 5e b2 a4 d5 90 df 95 bf 62 2d 34 ea 38 7b df 3f
       -0.02136064819312577 0.491895893778482
0002c0 98 09 19 dc 47 c8 e1 bf 3f 57 51 a2 a6 26 98 3f
       -0.5556983279023369 0.023584941536987755
0002d0 24 59 07 f4 d1 84 ee 3f c1 81 df 69 c2 b4 a0 3f
       0.9537133947549461 0.03262908499141615
0002e0 6a 61 77 49 d3 60 61 bf 88 fa f1 4e 9c b8 ab bf
       -0.002121365232351892 -0.05414284194647673
0002f0 7a 3c df a4 10 86 87 3f 38 13 47 58 d8 82 a8 bf
       0.011486177474493642 -0.047873268867567764
000300 a8 dc c6 65 2c 3f a8 3f 76 18 b5 84 e6 55 91 3f
       0.04735697500603325 0.01692924675924031
000310 5a 69 10 40 45 dd a1 bf e7 19 69 a2 2e 5c b5 bf
       -0.0348912850096947 -0.08343783822156291
000320 0e 32 92 34 7d d5 80 bf 6c f8 96 fd 66 f9 93 3f
       -0.008219698111383369 0.019506081798447303
000330 78 94 fd c4 7c 40 64 3f 60 6f 63 ac 12 0d a1 bf
       0.002472156229418373 -0.03330286363936241
000340 6f 8a ea 55 b2 4a 97 bf 00 6a 40 a3 16 da 98 3f
       -0.022745882505328326 0.024269441331947306
000350 40 1a 23 d3 ef d9 a6 bf 02 d2 3b b4 b7 71 8d 3f
       -0.0446314759479276 0.014377055347247317
000360 73 24 07 94 d3 07 98 3f 44 bd 9d 60 7a 0e d1 bf
       0.02346735564222908 -0.26650866923496985
000370 ab 2f a2 b7 59 d3 d3 3f f1 b2 fe 9f 22 c4 ab bf
       0.30977480824435116 -0.05423076823294604
000380 52 91 0c 38 12 35 b2 bf 0c 61 40 6d cf d1 81 bf
       -0.07112230175386472 -0.00870096256407795
000390 4e b5 96 47 c7 7f b0 3f 1d eb 9f c1 b9 4b bd bf
       0.06444974420329183 -0.11443673112073012
0003a0 3b cd f7 04 a7 6b c0 3f 12 32 b0 a0 62 d0 c4 3f
       0.12828529112412376 0.16260941358667985
0003b0 64 0f bb 40 65 5a 78 bf 3f 2e 9a 20 0b 94 7d 3f
       -0.0059455828847524185 0.007221263376446851
0003c0 19 e8 73 3c 3c 0b 99 3f 9e b6 34 56 f7 03 b1 bf
       0.024456921758407277 -0.06646676878582489
0003d0 3f e5 69 4d 3a 6d b4 3f b7 d8 3a f3 c5 c7 c0 3f
       0.07979168310148042 0.13109659553965056
0003e0 74 f0 3a 1c 8a c7 b4 3f 59 e2 b5 f7 3a a2 b5 3f
       0.08116973103727948 0.08450668857211364
0003f0 c2 05 de ba 0f ec d1 3f 70 0a 4e 05 27 01 3c bf
       0.2800330471873985 -0.0004273147836146079
000400 f3 24 35 19 2b 18 68 3f 94 89 ca 74 92 bd 44 bf
       0.002941211868947685 -0.0006329503172149303
000410 bd 26 63 f7 4e 38 5d 3f 33 14 1f 67 80 65 32 3f
       0.0017834445148302979 0.0002807081683580709
000420 6a b1 79 39 05 41 5a 3f 4e ed 10 6c 24 25 63 bf
       0.0016024161358486285 -0.0023370467538634037
000430 d3 19 00 c0 37 89 4f 3f 23 aa 18 21 4a 61 37 3f
       0.0009624025551609412 0.0003567510585492947
000440 db f2 b8 3c d0 e9 5f bf 93 42 db 49 19 d8 4b bf
       -0.001947835308683191 -0.0008497355917943143
000450 d9 4e ad 19 5a 89 50 3f 09 24 15 32 92 be 60 bf
       0.0010093097577809544 -0.0020439963706491188
000460 b2 fe c2 e6 d4 11 43 3f 35 87 48 0e f9 7f e3 3e
       0.0005819596822433575 9.298274059213813e-06
000470 ff 7d cb ad ea d0 05 bf 9e 99 23 37 11 f2 62 bf
       -4.1610872107741136e-05 -0.0023126922834421767
000480 cb bb 78 9a 00 0f 41 3f ef 04 2d e0 96 16 c0 bf
       0.0005205872484504934 -0.12568937250220055
000490 b5 49 15 03 73 2d b4 bf 2d 1f e6 7d 29 5d c4 3f
       -0.07881850075981485 0.15909308097274658
0004a0 86 3f 5d d2 3c 70 a4 3f 9d e0 5c 2e d8 c7 b3 bf
       0.03991880481646519 -0.07726813442139009
0004b0 ec e5 a6 c0 57 5f ab bf 09 21 d2 dc 1c 84 ab bf
       -0.053461782710154754 -0.05374231525007828
0004c0 f1 2f 70 4d 65 5f b4 bf 6e 57 db c8 b3 ff b3 bf
       -0.0795806230600531 -0.07812045720797098
0004d0 24 70 a7 4c 9f 10 a1 bf fa a0 41 3e ed 55 bc 3f
       -0.03332994280546611 0.11068613786631323
0004e0 97 55 fe d0 cf 93 b4 bf 9f 1b b5 1e 3a 63 c2 bf
       -0.08038042881374562 -0.1436531686724409
0004f0 2a 0f 28 ec 20 a0 aa bf 24 9c 5b ae de 41 d2 3f
       -0.05200293429154919 0.2852703764642135
000500 2c 09 86 52 02 6f 87 bf a8 e8 f2 62 b1 53 c9 bf
       -0.011442201751155588 -0.1978666051052802
000510 38 55 8f c7 3d 39 bd 3f
       0.11415468332355239
